Maya with NN,ML,AI,DL,&NLP/TrainData.pth (torch, 3559 bytes, 6 tensors)

l1.weight f4 [8, 20]
000000 9a 54 8d 3e 3e 34 8d 3e 2e 7b f6 3d 18 b4 5d 3e
       0.27603608 0.2757892 0.120352134 0.21650732
000010 bc a5 de 3e 61 1f 8e 3e e8 58 bb 3e 25 74 95 3e
       0.4348582 0.27758315 0.36591268 0.29190174
000020 29 a2 47 3e 6d d7 58 3e 86 d9 b8 3d 79 19 dc 3e
       0.19495453 0.21175928 0.09025864 0.42988184
000030 9a 02 c2 3e 11 7e 7e 3e 5c 33 28 3e 76 24 dd 3e
       0.3789261 0.24852778 0.16425842 0.4319188
000040 49 0b 8f 3e c2 8d 59 3e cc bc 2d 3e 75 4a 93 3e
       0.27938297 0.21245483 0.16966552 0.28767744
000050 18 81 4d 3e 29 93 24 3d 56 c0 ba 3e c9 53 e1 3e
       0.20068777 0.040179405 0.36474866 0.44009236
000060 2f 46 37 3d 9b 1f ac 3e ec 41 c9 3e ec 87 60 bc
       0.044744667 0.33617863 0.39308107 -0.013704281
000070 43 fd 62 3e 16 60 e2 ba a2 89 c8 3d a4 4d aa 3d
       0.22166924 -0.0017271067 0.097918764 0.0831559
000080 87 35 7d 3d d4 5c 68 3e 60 27 cd 3e a0 a9 2d 3e
       0.061818626 0.22691661 0.40069103 0.16959238
000090 6c 90 c5 3b d3 ba 49 3e 6d 7a b6 3e da 25 61 3e
       0.0060291793 0.19700174 0.35640278 0.21987095
0000a0 e7 e3 83 3e 32 79 96 3e 67 77 bf 3e 6c a1 a2 3e
       0.25759813 0.2938934 0.37395784 0.3176378
0000b0 c7 8b f0 3e 89 49 b5 3e 84 d9 c5 3e d0 54 6c 3e
       0.46981642 0.35407665 0.38642514 0.23079228
0000c0 76 68 b0 3e 01 70 2c 3e 25 83 ca 3e 7b c5 34 3e
       0.34454697 0.16839601 0.3955318 0.17653458
0000d0 82 56 83 3c 42 2d 47 3d 9b 4d 07 3e 3f d8 0e 3e
       0.016032461 0.048627146 0.13213198 0.13949679
0000e0 0b bf 2d 3e cb ca 23 3e 98 3f c4 3d 33 f2 d3 3d
       0.16967408 0.15995328 0.09582442 0.1034893
0000f0 7b 86 e7 3e 7d e5 9b 3e e4 bd 70 3e 7c ce c9 3e
       0.45219788 0.30448523 0.23509938 0.39415348
000100 7d 70 7a 3e 0b a0 b5 3e d5 85 91 3e 03 cc 72 3e
       0.24456973 0.35473666 0.28422418 0.23710637
000110 13 bb f1 3e 0a 29 aa 3e 3c 3b ed 3e c0 54 d0 3e
       0.4721304 0.33234435 0.46334255 0.4068966
000120 9a 33 d2 3e 82 16 c3 3e 22 67 7f 3e 1c f9 a0 3e
       0.41054994 0.3810311 0.24941686 0.31440055
000130 bf 8e 70 3e 65 28 6e 3e 76 f0 c0 3e f1 0f 6b 3e
       0.23491953 0.23257597 0.37683457 0.229553
000140 04 a8 1f 3e 87 41 ca 3d 33 7d 9a 3e 09 a8 df 3e
       0.15591437 0.098757796 0.30173644 0.43682888
000150 33 30 9e 3e 1f 04 9b 3e da 7e bc 3e 19 bf 12 3e
       0.30896148 0.30276582 0.3681553 0.1433071
000160 77 9b cd 3e 52 f8 b9 3e ce 37 6b 3e 50 9d cd 3e
       0.40157673 0.36322266 0.22970507 0.40159082
000170 e9 11 85 3e 2e 01 a5 3e d3 d7 8c 3d 07 7f e3 3e
       0.25990227 0.32227463 0.06877103 0.44432852
000180 ad b6 81 3e 2b f0 cf 3d 11 cb 9b 3d 70 2e e5 3e
       0.25334683 0.1015323 0.07607091 0.44761992
000190 c8 9b 83 3f ba e0 9b 3e 73 f5 7c 3f de 15 8b 3f
       1.0281916 0.3044489 0.98812026 1.0866048
0001a0 7d 32 7b 3e 69 f7 24 3e 73 23 4e 3e b7 9c 5a 3e
       0.24530979 0.16110004 0.2013071 0.21348844
0001b0 68 a3 d9 3e 55 af 44 3e d7 56 5b 3e d5 5e 87 3e
       0.42507482 0.19207509 0.21419846 0.2643954
0001c0 5f 5e ad 3e 0a 50 37 3f ff ed e5 3e 17 b2 c4 3e
       0.33861062 0.71606505 0.4490814 0.38417122
0001d0 76 14 b0 3e 6a 96 74 3f 6d 8a 69 3f 0a e0 68 3e
       0.3439061 0.95542014 0.91226846 0.22741714
0001e0 60 e7 bd 3e 2a 0d c6 3e cb 57 cb 3e a9 3f c3 3e
       0.37090588 0.38681918 0.39715418 0.38134506
0001f0 8d 80 12 3e f3 1d 5c 3e b2 a0 9f 3e ef 67 8b 3e
       0.1430685 0.214958 0.31177288 0.27227733
000200 20 b6 6d 3e 4e de 4c 3e ad 6f cc 3e 7a 27 c2 3e
       0.23214006 0.20006678 0.39928952 0.37920743
000210 49 db bb 3d ee f9 39 3d bf 1c 02 3e f4 59 a0 3e
       0.09172685 0.045404367 0.12706278 0.3131863
000220 6a ba 20 3e d5 4d 3f 3e 33 9b 97 3e f1 da 44 3e
       0.15696111 0.18682034 0.29610595 0.19224145
000230 b6 39 20 3e 85 9d 99 3e 5c 96 0f 3e 45 bd d6 3e
       0.15647015 0.3000299 0.14022201 0.41941276
000240 d9 fc a3 3e 26 b3 ba 3e 0d 8b 80 3e b3 c2 78 3e
       0.32028845 0.36464804 0.25106087 0.24293022
000250 dc 29 dd 3e ad 14 9a 3e 68 bd 53 3e ad ea e1 3e
       0.43196 0.300939 0.20677722 0.44124356
000260 76 8f f5 3d 01 c5 b8 3e 8f df ce 3e f2 8a c2 3e
       0.119902536 0.36087802 0.40404937 0.37996632
000270 7b a8 9c 3e 3a fe 59 3e d5 30 e7 3d 96 3f ac 3e
       0.3059729 0.21288386 0.11288611 0.33642262

l1.bias f4 [8]
000000 27 2c 2a 3f 36 c8 c1 3e 66 c4 16 3f b0 eb ee 3e
       0.6647362 0.3784806 0.5889343 0.4666419
000010 0b 46 cf 3e 53 9a 6b 3e a8 01 79 3e 8e 4e d6 3e
       0.40483126 0.23008089 0.24317038 0.41856807

l2.weight f4 [8, 8]
000000 1d 2b 53 3e a6 28 5b 3e 62 12 0d 3e 6a e4 64 3e
       0.20621915 0.21402225 0.13776544 0.22352758
000010 35 4c 4b 3e 81 31 46 3f 04 cf 3b 3f ab eb 31 3e
       0.1985329 0.77419287 0.73362756 0.17375056
000020 57 41 8e 3e 23 86 f5 3e 86 96 81 3d 27 ae 25 3f
       0.27784225 0.479539 0.06327538 0.6471886
000030 fd 45 1c 3f 90 4d 50 3f fe d9 15 3f c2 b7 1d 3f
       0.61044294 0.8136835 0.58535755 0.6160852
000040 dd 2b 3e 3f af 39 0e 3f 14 c1 3e 3f fe 70 84 3f
       0.7428568 0.5555677 0.74513364 1.0346982
000050 d3 d2 27 3f 8b df 07 3f e7 16 63 3e b5 de 1b 3f
       0.6555607 0.53075475 0.22176705 0.608867
000060 07 a4 5a be b4 6e 15 3b df 6d aa be 09 60 b8 be
       -0.21351634 0.002280158 -0.3328695 -0.3601077
000070 a5 00 59 3c 16 5f c7 be 1d 52 51 be 1c 23 0c 3e
       0.013244783 -0.38939732 -0.2044148 0.13685268
000080 c1 17 ad 3e c6 67 2a 3e 2d 54 9a be 60 ce c3 3d
       0.33807185 0.16641149 -0.30142346 0.09560847
000090 f8 f4 86 bd f3 8d 68 be 4c dd f2 3d 80 94 64 bb
       -0.06589693 -0.227104 0.11858615 -0.0034878552
0000a0 02 0f 2e be ed e2 cb bd 2f a8 3e be 09 1c 98 3e
       -0.16997913 -0.09955392 -0.18618844 0.2970889
0000b0 96 31 db bd d2 09 22 be 96 c8 5b be f8 88 d0 bd
       -0.10702817 -0.15824059 -0.21463236 -0.10182375
0000c0 04 8f d2 3e b5 bf 18 3f 64 a5 17 3f 89 37 ef 3e
       0.41124737 0.5966752 0.5923674 0.46722057
0000d0 e4 2e 5c 3e 4b 05 40 3f 68 10 29 3f 4b a5 8d 3e
       0.21502262 0.75008076 0.6604066 0.2766517
0000e0 73 75 d8 3e ce f0 0f 3f b0 68 e0 3e 0e 83 32 3f
       0.42277107 0.56226814 0.4382987 0.69731224
0000f0 f2 a1 27 3f 05 92 b4 3e 06 0b ab 3e 98 b8 18 3f
       0.65481484 0.35267654 0.33406848 0.5965667

l2.bias f4 [8]
000000 40 b3 bd 3e f3 bb 01 3f dc 1a 7e 3e 67 3d 6b 3e
       0.3705082 0.5067741 0.24814934 0.22972642
000010 36 73 96 be 01 6b dc 3d bf 5b 92 3e 0c a9 d9 3e
       -0.29384774 0.10762597 0.28585622 0.42511785

l3.weight f4 [7, 8]
000000 a5 24 09 3f 2e d8 9a 3e 38 56 f1 3e 3b dc ec bd
       0.5357154 0.30243057 0.47136092 -0.11565443
000010 a3 77 92 3e e9 88 2d 3d d7 bb 05 3f 1e 98 05 3f
       0.286069 0.042366896 0.52239746 0.5218524
000020 83 00 32 bf 4c 81 f2 be 06 55 52 bf 7a 03 03 be
       -0.6953203 -0.4736427 -0.82160985 -0.12794295
000030 00 c4 ad 3c 65 61 8b be 37 e6 5a be 53 65 ca be
       0.021211624 -0.27222744 -0.21376882 -0.3953043
000040 5a 99 72 be 3a 00 f0 be 12 34 60 bf 9e e9 16 be
       -0.23691311 -0.46875173 -0.87579453 -0.14737555
000050 a0 fc d5 3d e3 cc 72 3d 73 b6 03 bf 84 84 1e be
       0.10448575 0.059277426 -0.5145027 -0.15480238
000060 c6 7e 35 bf a6 b8 a7 be d8 05 4b bf 6c ba a7 be
       -0.70896566 -0.32758063 -0.7930579 -0.32759416
000070 6e c6 09 be 41 82 80 be 8f 04 11 bf 84 2c 7b be
       -0.13454601 -0.25099376 -0.5664758 -0.245287
000080 32 74 21 bf 75 35 07 bf 26 d2 60 bf 5e 72 04 be
       -0.63067925 -0.52815944 -0.8782066 -0.12934253
000090 2b 8b b2 3e ee d7 15 bd ea 8f 0d bf 0b f5 8f bd
       0.34871802 -0.03658288 -0.5529772 -0.0702916
0000a0 14 66 31 bf 02 27 aa be ba 6a 04 bf b5 2b 1e 3e
       -0.69296384 -0.33232886 -0.5172535 0.1544636
0000b0 a0 b9 90 bd d8 06 11 be b7 a2 08 bf 1f e7 0b bf
       -0.07066655 -0.14162767 -0.53373283 -0.5464954
0000c0 97 a1 35 bf 4e 76 25 bf a9 4d 50 bf 5c 7c 6f be
       -0.7094969 -0.64633644 -0.813685 -0.23387283
0000d0 16 52 16 be e9 b1 96 3e 9d 4a 2b be 82 d1 9a bd
       -0.14679751 0.2943261 -0.16727681 -0.07559492

l3.bias f4 [7]
000000 af f9 cc 3e 6e 4b 94 be b4 77 f9 be a7 6c 06 bf
       0.40034243 -0.28963798 -0.4872414 -0.5250954
000010 9f aa 22 3e 84 1b aa be 53 bb 81 be
       0.158854 -0.33224118 -0.2533823
